_________________________________________________________________
Layer (type)                 Output Shape              Param #   
=================================================================
input_depth (InputLayer)     (None, 96, 96, 1)         0         
_________________________________________________________________
mobilenetv2_1.00_96 (Model)  (None, 1280)              2257408   
_________________________________________________________________
output_1_flatten (Flatten)   (None, 1280)              0         
_________________________________________________________________
output_2_dropout (Dropout)   (None, 1280)              0         
_________________________________________________________________
output_2_dense (Dense)       (None, 512)               655872    
_________________________________________________________________
output_2_act (Activation)    (None, 512)               0         
_________________________________________________________________
output_3_dropout (Dropout)   (None, 512)               0         
_________________________________________________________________
output_3_dense_and_act (Dens (None, 2)                 1026      
=================================================================
Total params: 2,914,306
Trainable params: 2,880,194
Non-trainable params: 34,112
_________________________________________________________________
