_________________________________________________________________
Layer (type)                 Output Shape              Param #   
=================================================================
input_depth (InputLayer)     (None, 96, 96, 1)         0         
_________________________________________________________________
mobilenetv2_0.50_96 (Model)  (None, 1280)              705936    
_________________________________________________________________
output_1_flatten (Flatten)   (None, 1280)              0         
_________________________________________________________________
output_2_dropout (Dropout)   (None, 1280)              0         
_________________________________________________________________
output_2_dense (Dense)       (None, 512)               655872    
_________________________________________________________________
output_2_act (Activation)    (None, 512)               0         
_________________________________________________________________
output_3_dropout (Dropout)   (None, 512)               0         
_________________________________________________________________
output_3_dense_and_act (Dens (None, 8)                 4104      
=================================================================
Total params: 1,365,912
Trainable params: 1,347,368
Non-trainable params: 18,544
_________________________________________________________________
